log/dqn/1745257450/prey_1_epoch0.pth (torch, 631890 bytes, 12 tensors)

model.model.model.0.weight f4 [256, 13]
000000 85 5e 61 3e 2b c8 6f 3e 9b 58 83 bd 4e 55 83 3e
       0.22008713 0.23416202 -0.064133845 0.2565102
000010 29 db 80 bd 38 3e 67 3d 64 30 04 be 1a 92 2c 3e
       -0.062918015 0.05645582 -0.12909085 0.16852608
000020 49 24 7b 3e 87 eb 50 be 4b 12 7f 3e 14 2a 7b 3d
       0.2452556 -0.20402347 0.24909322 0.061319426
000030 97 d3 51 3e 44 4c 26 3d 03 bd 0c 3e 7d 87 20 bd
       0.20490871 0.040600076 0.13743977 -0.03919171
000040 80 22 64 3e 1d bb 51 3d 86 8f 08 be b3 8d 97 3d
       0.22278786 0.051203836 -0.13336 0.07400074
000050 60 2a fd bd c3 43 ca bc f1 91 ec bd 76 70 3c 3e
       -0.12361598 -0.024690514 -0.115512736 0.18402275
000060 c5 8c 66 be 10 ee 02 be d1 62 ae bd e4 54 22 be
       -0.22514637 -0.12786126 -0.085149415 -0.15852696
000070 e9 3f ba 3c 42 45 8f be 3a 09 84 3e b1 ca 68 be
       0.022735553 -0.27982527 0.2578829 -0.2273357
000080 24 49 5d 3e 58 c2 65 3d df 93 a9 bd 75 06 44 3e
       0.21609932 0.056093544 -0.08280157 0.19143088
000090 2f 89 68 3d 09 36 71 3e 49 61 f8 3c 76 12 af bd
       0.056771453 0.23555769 0.030319827 -0.08548443
0000a0 d8 4c a2 3d 9b 47 9e bd 5f d8 f1 3d c9 5c 7d 3e
       0.07924813 -0.077285014 0.11808848 0.24742426
0000b0 e1 9f 22 3e f2 d0 ed bd 66 e6 2a 3e bb 3d 69 3d
       0.15881301 -0.11612119 0.16689453 0.056943636
0000c0 95 ed 11 3e 22 8e 28 be dd 1c 8a be 32 75 db bd
       0.14250787 -0.1646047 -0.26975146 -0.107157126
0000d0 d8 73 4f be 13 75 68 3e f3 6e 9f 3d 68 6a f0 3d
       -0.20259035 0.2270091 0.07784834 0.117390454
0000e0 55 cf b6 3d 2b ce 4a bc 2f 01 5b 3e af 81 52 be
       0.08926264 -0.012378256 0.2138717 -0.20557283
0000f0 9c 99 37 3c 98 bf 52 be 16 a6 92 3d 48 8c d7 bd
       0.011206057 -0.205809 0.07160585 -0.105248034
000100 66 0c ae 3d fd 21 78 bd 37 77 6a 3e 10 9b 27 be
       0.084984586 -0.06057929 0.2289704 -0.16367745
000110 1b 64 25 be 6b 2d 27 be 74 9b 7e 3e f1 33 b8 3d
       -0.16151468 -0.1632592 0.24863988 0.08994282
000120 34 05 8a 3e 43 b0 6d be 78 e0 8c be 97 af 5d be
       0.26957095 -0.2321177 -0.27515006 -0.21649013
000130 4c 2b 3b be 6d 11 e6 3d 6c e0 ba 3d cc 90 64 3e
       -0.18278235 0.112337925 0.09124836 0.2232086
000140 7c ce 0f be ee b5 4b be 6f b4 0e 3e ab 30 e3 bd
       -0.14043611 -0.1989362 0.13936017 -0.11093267
000150 f2 af 2c 3e 6a 23 88 bd 62 df 20 3e 52 97 5e be
       0.16863993 -0.0664738 0.15710214 -0.21737412
000160 ac ff 10 be af d3 ab 3d 1a 2a 70 3d 23 06 70 bd
       -0.14160031 0.08389985 0.0586339 -0.058599602
000170 24 71 31 3e b4 72 40 3e 9e 6d 4d be eb 8c 19 be
       0.17328316 0.18793756 -0.20061347 -0.14995162
000180 9c e2 82 3e 9d c3 cd bd 21 1f d7 bd 12 4b 8a be
       0.25563514 -0.10047076 -0.10503984 -0.270104
000190 7e eb 36 be 09 a2 56 3d a0 2f 41 bd 06 28 4e be
       -0.1786327 0.052400623 -0.04716456 -0.20132455
0001a0 b2 98 79 3b e4 68 3d be 35 70 70 be 27 09 21 be
       0.0038085398 -0.18497044 -0.23480304 -0.15726148
0001b0 53 a7 7d be a3 6f 3b be 27 4c 8b 3e c8 50 62 3d
       -0.2477086 -0.18304305 0.27206537 0.05525282
0001c0 e7 7f b9 3d 87 ce 83 be 35 3a 39 be 58 fc c2 bd
       0.090575986 -0.25743505 -0.1808861 -0.09520787
0001d0 43 a4 31 3d 9c a4 75 be 1e 20 e6 bd af 29 2d be
       0.043369543 -0.23988575 -0.112365946 -0.16910432
0001e0 63 4b 87 3b c1 0b cf bd 27 e7 7a bc f2 26 3d be
       0.00412886 -0.10109664 -0.0153139 -0.18471888
0001f0 de e8 42 be e9 46 2b be 95 55 b8 bd 3d e9 54 be
       -0.19034144 -0.16726269 -0.090006985 -0.20792098
000200 09 18 69 3e d7 75 61 bd 1d 60 6f 3e 3d 33 aa 3d
       0.22763075 -0.05504402 0.23376508 0.08310554
000210 e2 95 72 be e6 32 46 3e 05 99 98 bd b8 64 e8 bd
       -0.23689988 0.19355354 -0.07451061 -0.113473356
000220 ea 50 73 be 2b a3 8e be 5b af a4 3d 6c a1 83 bd
       -0.23761335 -0.27858862 0.08041259 -0.06427273
000230 48 78 cd 3d 57 5d 70 be ce da 52 3e c2 25 58 be
       0.100327075 -0.23473106 0.2059128 -0.21108153
000240 75 ed 38 bd db f4 67 3d f9 95 12 3e 3c 61 6d 3e
       -0.04514833 0.056629997 0.14315023 0.23181623
000250 85 1c 81 3e b5 d2 5a be 74 80 98 3d 6f 3f ec bd
       0.2521707 -0.21369441 0.074463755 -0.115355365
000260 bd 18 75 bc cf f2 47 be 2c c7 85 3e 5c 72 50 be
       -0.014959511 -0.19526218 0.2612852 -0.20356125
000270 b9 ed 26 3e 2a 5d de 3d dc 36 ba 3d eb a0 0c be
       0.16301621 0.108576134 0.09092495 -0.1373326
000280 23 3a 84 3e 56 69 7f 3d 0a 95 2a 3d 92 95 75 be
       0.25825605 0.062356316 0.04164604 -0.23982838
000290 50 ed f4 3d 75 30 78 bd 07 1a 08 be ba a7 77 3e
       0.11959326 -0.060593087 -0.13291179 0.24185076
0002a0 8f 46 7d 3d f0 4d 17 be a9 53 0c be 13 ad 2d ba
       0.061834868 -0.14775825 -0.13703789 -0.00066252163
0002b0 7c 20 25 3e c4 88 78 bd f0 e6 1b be f5 d9 d2 bd
       0.16125673 -0.060677305 -0.15224814 -0.10295478
0002c0 10 d2 5b be d4 c5 bd 3d 16 d4 5a 3e 20 05 88 be
       -0.21466851 0.09266248 0.21369967 -0.2656641
0002d0 37 8a 76 3d 26 b7 12 3e 02 52 87 3d 48 57 b6 bd
       0.060190406 0.14327678 0.066074386 -0.08903366
0002e0 bc ae 11 3e 4a 0d 15 3e dd 79 c8 3d 3c cf 65 bd
       0.14226812 0.1455585 0.097888686 -0.056105837
0002f0 1c 7f 90 bd 10 89 21 3d de e7 2e bd d7 bc c9 bd
       -0.07055494 0.039437354 -0.042701595 -0.098504715
000300 81 27 33 3e 7b cb 7e 3e 59 ed e0 bc 00 88 4e bd
       0.17495538 0.24882309 -0.027456926 -0.05042267
000310 e3 f4 8b 3c 84 19 ac bc 6e 67 a5 3d 9c 4e bd 3d
       0.017084545 -0.02100826 0.08076368 0.09243509
000320 30 ab 82 be bc 76 c4 bd 8c a7 79 3e 20 9f ec 3d
       -0.2552123 -0.09592959 0.2438032 0.11553788
000330 81 ba 07 bc 11 41 21 be 83 58 25 be 53 67 7e be
       -0.008284212 -0.15747477 -0.16147046 -0.24844103
000340 36 fe c2 bd 7d d6 bd 3d fd f7 33 3e 7e b9 04 3e
       -0.09521143 0.09269426 0.17575069 0.12961385
000350 f5 89 76 be 88 4a 27 be 16 e7 17 bd 05 27 8a 3e
       -0.24076064 -0.16337025 -0.037085615 0.26982895
000360 39 77 38 3d ef 2b 6e bd 26 71 f7 3d cd 2f c7 bd
       0.045035575 -0.058147367 0.12082128 -0.09725914
000370 27 d3 37 be ea 7e 5a 3e 44 62 f8 bd f7 6c 68 bd
       -0.17951642 0.21337476 -0.12128118 -0.056744542
000380 d9 13 8b be 26 40 3b 3e 0c 43 50 3e b6 f3 d7 3d
       -0.2716358 0.1828619 0.20338076 0.10544531
000390 9b 98 48 be c6 e9 8d be 29 f2 77 be 05 f3 4a 3e
       -0.19589464 -0.27717417 -0.2421347 0.19819267
0003a0 d0 3d 0b 3e 24 fe 6e 3e 91 bb 29 3e 62 b1 b6 3d
       0.13597798 0.23339134 0.16575457 0.08920552
0003b0 8a 91 53 3c ed 75 51 be e9 93 6b be f1 98 88 be
       0.012913117 -0.20455141 -0.23005642 -0.26679185
0003c0 36 b5 e8 3d 16 e0 0b be 55 ca 50 bd fa 19 30 be
       0.11362688 -0.13659701 -0.05097421 -0.1719741
0003d0 8f 00 79 bd a3 9f 48 be 05 93 39 be 4c cc ca 3d
       -0.06079155 -0.19592147 -0.1812249 0.09902248
0003e0 3e 54 a9 bd 9c 5b 2e 3e 2e f7 b8 bd 5a 8f 53 be
       -0.08268021 0.17027134 -0.09031521 -0.20660153
0003f0 33 40 4f bd 5b fa 10 be 97 4e bf bd 3b 8c 89 be
       -0.050598335 -0.14158003 -0.09341162 -0.268648

model.model.model.0.bias f4 [256]
000000 2b 46 8d 3e c5 af 80 be 97 e9 88 3e 35 27 5d be
       0.27592596 -0.25134102 0.26740715 -0.21596988
000010 9a 47 8f bd 2c 60 ea bd 91 6c 1e be cf 8b d8 3d
       -0.06996079 -0.114441246 -0.15471102 0.105735414
000020 60 08 24 3e fa 10 36 be 1d 00 0a be 14 a5 17 3e
       0.1601882 -0.17779914 -0.13476606 0.14809066
000030 32 da c1 bc cc 5f 8c 3d a4 2f 19 3e 7b 78 bb bd
       -0.023663614 0.06854209 0.1495958 -0.09153839
000040 57 cc 1a be 1a 22 d6 3d c2 c4 a9 bd 83 8b 3f be
       -0.15117012 0.10455723 -0.08289482 -0.18705563
000050 84 4c 09 be 9d fb 09 be 6f d4 8e 3e 40 b9 75 3d
       -0.13408095 -0.13474889 0.2789645 0.05999112
000060 18 8a f1 3d 9e 8e 00 3d 41 45 37 be b0 65 4d 3e
       0.117939174 0.03138601 -0.17897512 0.20058322
000070 84 df 17 bd e1 6b a7 bd 12 c9 6a 3e 91 30 0f be
       -0.037078395 -0.08174873 0.22928265 -0.1398337
000080 c5 ce 67 3d a4 cd 74 be 74 cb 08 3e 05 ed eb 3d
       0.056593675 -0.2390657 0.13358861 0.11519817
000090 4e 1b 64 be c2 79 27 3e 30 02 16 3d ab 5f 13 be
       -0.22276041 0.1635504 0.03662318 -0.14391963
0000a0 ba 4e 71 3e ba a7 ea 3d 2d 9d d1 3d 6c f6 bb bd
       0.23565188 0.114577726 0.10235057 -0.091778606
0000b0 73 6e 1a be 81 25 16 be 1f 26 e2 3d 25 7e 98 3d
       -0.15081196 -0.14662744 0.11042427 0.07445935
0000c0 39 ed 2c be 1f 74 7a 3e 2d 03 1e 3e 0e 66 ca bd
       -0.16887368 0.24458359 0.15430899 -0.09882747
0000d0 fe 41 0c 3e 70 88 ea bd 85 55 ac 3d 4e dc 6a 3e
       0.13697049 -0.11451805 0.08414749 0.22935602
0000e0 b2 2f 7c be 86 ed 10 be 1c 6c 0f bb 92 91 32 3d
       -0.2462757 -0.14153108 -0.0021884507 0.043595858
0000f0 14 35 6d be b9 9d 3d be c1 32 f9 bc 38 df 09 bd
       -0.23164779 -0.18517198 -0.03041971 -0.033660144
000100 35 32 78 3d aa a9 1d 3d ac ce 67 3d 31 7b 81 3c
       0.060594756 0.038491882 0.056593582 0.015805813
000110 6a a8 0d 3d d8 83 91 bc b9 b7 d5 3d 07 58 42 3e
       0.03458444 -0.017763063 0.10435433 0.18978892
000120 cc 04 08 be 4c 95 17 be ef d0 f7 3d 15 e4 47 be
       -0.1328308 -0.14803046 0.12100398 -0.195206
000130 c5 8b 3e 3e 05 c1 fc 3d 68 2e 1c 3d 95 67 ef bd
       0.18608005 0.12341503 0.038130194 -0.116896786
000140 4a 71 32 3c de 27 5b be e3 bf 79 be a7 69 86 3e
       0.010891268 -0.21401927 -0.24389605 0.2625248
000150 ba 9b 80 be 8c e0 6f be 8f 0b dc bd 94 74 7e 3c
       -0.2511881 -0.23425502 -0.10744392 0.015530724
000160 8b 6f 78 3d 84 73 04 be 22 f3 e1 bc 4e fd 6d bd
       0.06065325 -0.1293469 -0.027581755 -0.0581029
000170 62 55 6b 3e 69 f1 76 3e e3 e2 ed 3d 9a 78 18 bb
       0.2298179 0.24115528 0.11615541 -0.0023265244
000180 67 31 5f 3e 0b f4 65 be f0 4e f7 3d 9d a1 24 be
       0.21796189 -0.22456376 0.12075603 -0.16077276
000190 2e 37 5c 3e 64 84 78 be 59 67 cc 3d 22 71 6b be
       0.21505424 -0.24269253 0.099806495 -0.22992375
0001a0 ac 13 2a 3e d1 2d 55 3d 6e 87 6f 3e f8 29 5b be
       0.16609067 0.052045647 0.23391506 -0.21402729
0001b0 ae 71 38 3e 75 f8 3f be 45 2f 14 be 1c a2 f4 3d
       0.18012115 -0.18747123 -0.14471157 0.119449824
0001c0 d2 66 2f bd 39 15 64 be ea 8c 70 be a7 3b 9a bd
       -0.042822666 -0.22273721 -0.23491254 -0.07530909
0001d0 6d 8c 97 3d 04 ab 80 3e 01 1b 5b 3e 56 f3 0f 3c
       0.07399831 0.25130475 0.2139702 0.008786043
0001e0 be 7a 25 be 5c 21 7a be 59 29 7e 3e 30 d3 1b be
       -0.16160104 -0.24426788 0.2482046 -0.1521728
0001f0 e5 58 38 bd 38 cb 61 be 41 87 36 be ab ed 3e 3d
       -0.04500665 -0.22050178 -0.17825033 0.046613377
000200 56 40 54 bd c0 78 fb 3c e3 cc 70 bb 3a 76 7f 3c
       -0.051819168 0.030697227 -0.0036743216 0.015592152
000210 c0 54 68 bd 93 e6 48 bc b4 e7 fb 3d 2a b8 55 3e
       -0.05672145 -0.012262004 0.12300053 0.20871034
000220 96 ba 73 3e 4c ad 65 be a5 f8 6c be 6d c7 22 bd
       0.23801646 -0.22429389 -0.23141725 -0.03974097
000230 e2 39 91 bc ea a9 22 3e e2 93 89 3e 39 0d 93 3d
       -0.017727796 0.1588513 0.26870638 0.071802564
000240 5c 43 4a be 0f f6 e8 bc ea 03 38 3e 07 f2 e3 3d
       -0.19752258 -0.028437642 0.17970243 0.111301474
000250 27 14 49 be 33 4b 7e 3c db 23 88 be d8 87 e1 bd
       -0.19636594 0.015520859 -0.26589856 -0.11012238
000260 3d d8 3f 3e c2 c9 fa bd 53 8d 35 3e 4f 09 69 be
       0.18734832 -0.122455135 0.17729692 -0.22757457
000270 c3 5a 78 3e 5f 1c 04 3e 32 f3 3d 3e 0c 08 af 3d
       0.24253373 0.12901448 0.18549803 0.08546457
000280 04 67 d7 3c ee 59 0e be d8 55 0d be 85 39 3f be
       0.026294239 -0.13901493 -0.13802278 -0.18674286
000290 b1 44 67 3e 52 79 c4 bd 8a 3e 3b 3c e4 d7 87 be
       0.22584797 -0.095934525 0.011428485 -0.265319
0002a0 a3 b0 9b 3d 41 c3 b6 bd 55 08 69 be 6b da d0 3c
       0.0760205 -0.089239605 -0.22757085 0.025494775
0002b0 72 d5 7c be 5c ac c6 bc c4 27 66 be fb 10 32 3e
       -0.24690798 -0.02425211 -0.22476107 0.1738929
0002c0 c0 77 60 be df 09 4f 3d b0 ad 15 3e bc 0b 5e be
       -0.21920681 0.050546523 0.14617038 -0.21684164
0002d0 fc dc 34 3e 8e fd 68 3e 30 ba 2d be 77 d0 a2 3c
       0.17662424 0.22752973 -0.16965556 0.019874794
0002e0 8d 07 bf 3d 90 ed 70 3e 91 46 64 3e e8 af 6b be
       0.09327612 0.23528123 0.22292544 -0.23016322
0002f0 62 da 67 be 54 9b 77 be 22 a0 f3 bd 38 39 6f bd
       -0.226419 -0.24180347 -0.11895777 -0.058404177
000300 b6 22 c3 bd e5 4c 45 3e ac 70 3f be 2f f6 62 be
       -0.09528105 0.19267614 -0.18695325 -0.22164224
000310 9c 96 5c be 6b d3 2b be a9 c7 8d 3e 3e e4 0e 3d
       -0.21541828 -0.16779868 0.2769139 0.034885637
000320 ae 11 55 bd 9e 24 ad bd 0c b1 56 be f7 f0 be bd
       -0.052018814 -0.0845425 -0.20965976 -0.09323304
000330 84 86 0f 3e 85 41 49 3e 62 dc 49 3e 37 f5 80 3c
       0.14016157 0.196539 0.19712976 0.015741928
000340 6e 87 16 be 94 43 22 be 96 54 8a 3e 5d 21 7c be
       -0.147001 -0.15846092 0.2701766 -0.24622102
000350 45 17 83 3d 05 90 9f bc ea d0 81 3e 10 81 2b 3e
       0.06400923 -0.019477854 0.253547 0.16748452
000360 9f ff 71 bd fc 7e 68 be 90 c8 44 3d b9 d3 44 be
       -0.05908167 -0.2270469 0.048042834 -0.19221391
000370 86 cc e1 bc 2c 32 9f 3d d8 17 07 3e d5 df 71 bd
       -0.027563345 0.077732414 0.1319269 -0.059051353
000380 50 3d 3b be e9 13 75 be bd 92 85 be e3 af 0c 3d
       -0.18285108 -0.23933376 -0.26088515 0.034347426
000390 f4 41 2c be c1 d0 56 3c 99 9a fb bd ce 00 43 be
       -0.16822034 0.013111294 -0.122853465 -0.19043276
0003a0 25 a4 3f 3e 7e 0b 26 3e f1 2b 45 3e 2a d5 88 3e
       0.1871496 0.16215321 0.19255044 0.2672513
0003b0 c7 f5 4f be 74 f6 17 be 48 6e 4f be 48 91 36 3e
       -0.203086 -0.14840108 -0.20256913 0.17828858
0003c0 04 d3 30 3e ba 70 66 3e 56 d9 49 be 16 4f 1a be
       0.17267996 0.2250394 -0.19711813 -0.15069231
0003d0 f3 93 8c 3e 32 06 5a be 5c 11 39 be 9c 49 e1 3d
       0.27456626 -0.21291426 -0.18073028 0.11000368
0003e0 81 17 7f be 47 d5 9d bd b5 95 f9 3d 56 e6 6c 3e
       -0.2491131 -0.07706695 0.121867575 0.23134741
0003f0 22 8d e7 bc 7b 3d 7b be dc 2f 1b 3e 98 b1 8f 3e
       -0.02826554 -0.24535172 0.15154976 0.2806518

model.model.model.2.weight f4 [256, 256]
000000 55 87 47 bd d4 d9 b6 b8 01 1c 39 bd e6 5d 03 bd
       -0.048713047 -8.71901e-05 -0.045192722 -0.03207197
000010 ea 80 a3 3c e1 85 f1 3c 52 90 c8 3c c0 ff 75 bd
       0.019958932 0.029482784 0.02448288 -0.060058355
000020 db 65 82 bc 9b e2 df 3c d5 21 da bb 29 5f 95 bc
       -0.01591771 0.027329734 -0.006656865 -0.018233852
000030 04 09 0b bd fe bc 67 3d b1 b0 52 bd 21 cf 5a bd
       -0.033944145 0.05657672 -0.051438037 -0.05342019
000040 c9 46 35 3d 49 4c 22 bd 2e 1d f5 3c 87 68 11 bd
       0.04425696 -0.039623532 0.02992114 -0.035500076
000050 ff 67 1a bc d2 aa 02 bd 25 8a 4f 3d b9 49 2a 3d
       -0.009424209 -0.03190119 0.050668854 0.041574214
000060 d0 d7 4d 3b 92 0f 07 3b 5d ea e1 bc 4a 68 0f bd
       0.0031409152 0.0020608646 -0.027577573 -0.035011567
000070 e2 7b d8 bc 7e f6 9d 3c 11 9c 4d bc e2 e3 2d 3d
       -0.02642626 0.019282576 -0.012549416 0.042453654
000080 73 47 03 3c b5 02 bc 3a 48 8f 24 bd 2b 11 c7 3c
       0.00801264 0.0014344068 -0.040175706 0.024300179
000090 3a 73 74 bd 8e ba 5c 3c 05 2a b7 3c 18 21 27 3c
       -0.0596802 0.0134722125 0.022358904 0.010200761
0000a0 da 0b 2b 3d 1f ad 2b 3c 9d 98 9c bc bb d9 3c bd
       0.04175935 0.010478287 -0.01911574 -0.04610608
0000b0 eb fb 70 bd c4 a0 fb 3c 25 bf 06 3d 58 ab 44 bd
       -0.058833998 0.030716307 0.032897133 -0.04801497
0000c0 83 77 7f 3c b3 c6 b4 bc 45 9e 55 3d 2c f3 af bc
       0.015592459 -0.022067403 0.05215289 -0.021478258
0000d0 af 8a 55 3d c0 50 33 3d cf 58 0e 3d 75 60 28 3d
       0.052134212 0.04377818 0.034752663 0.041107614
0000e0 4d 08 94 3c e2 c4 aa 3c 5e cb 61 bd 57 c9 7b bc
       0.018070364 0.020845834 -0.055125587 -0.015367827
0000f0 f8 2e 27 bc f3 a1 f3 3c 60 ae cd bc 69 fd de 3c
       -0.010204069 0.02974031 -0.025107563 0.027220445
000100 62 16 2c 3d 07 77 d7 3c 32 f2 ea 3c 99 93 18 bc
       0.042013533 0.026301874 0.02867994 -0.009312534
000110 f7 09 e8 3c ab d2 b4 bc 1b 1c 5c 3d 96 38 96 bb
       0.028325064 -0.02207311 0.05373774 -0.0045843823
000120 57 b6 db bb a4 b8 5c bd af 93 6b 3d 5c df 20 bc
       -0.006705086 -0.053887025 0.05751389 -0.009818878
000130 d6 61 31 3d c8 e3 2b bd 07 20 54 bd bb 22 39 bc
       0.043306194 -0.041965276 -0.051788356 -0.011299784
000140 ab 1e 56 bd cc 68 26 3c fa 3b 2a 3a 50 8a c8 bc
       -0.05227534 0.010156821 0.00064939226 -0.024480015
000150 4e 6f 1d 3d 53 87 18 3d 9d 44 66 bd e9 dd 4d bd
       0.038436227 0.03723843 -0.05621778 -0.05026046
000160 aa 28 13 3d a3 e3 1d bd 10 45 35 3c 4d e7 8f bc
       0.035927452 -0.03854717 0.011063829 -0.017566347
000170 88 ad 20 3c 32 ee 11 bd 0e 9a 83 39 ea c1 b6 bc
       0.009806998 -0.03562755 0.00025101047 -0.022309262
000180 ea 8a dd bc c9 3e f3 bc 12 01 5e 3c 11 55 22 3d
       -0.027043778 -0.029693024 0.01355006 0.039631907
000190 e6 2c 81 ba 3f 91 06 ba 89 a6 52 3d 12 16 4b 3d
       -0.00098553 -0.00051333377 0.05142835 0.049581595
0001a0 a9 cb 24 bc d1 68 4c bd 96 da 4d 3c 62 8d 98 3c
       -0.010058322 -0.04990465 0.012564322 0.018622104
0001b0 2a 2b 4d bd ec a4 6a bd 85 fa 81 3b 6f 12 7f 3d
       -0.050089993 -0.057286188 0.003966632 0.06227344
0001c0 35 01 6a bd 0b 3a 0f bd d0 fb b7 bc 8c 73 5f bd
       -0.057130057 -0.034967463 -0.02245894 -0.054553553
0001d0 5a 1e 20 bd a4 87 45 3d 9e 83 40 3d ac 13 3e bd
       -0.039091446 0.04822506 0.04700052 -0.04640548
0001e0 e8 93 c0 39 43 f6 4f bd b2 7c ca 3c 6f 44 32 bd
       0.00036731292 -0.050771963 0.024717662 -0.043522295
0001f0 26 bc 06 bd 0a 9a ef bc a8 83 a4 3b 14 2d 2c 3d
       -0.032894276 -0.029248256 0.0050205775 0.042035177
000200 d0 d1 d0 bc 0b fc 32 3c af e5 46 3d d0 ad a7 bb
       -0.025490671 0.01092435 0.048558887 -0.0051171556
000210 d8 38 c9 3b 80 27 7c 3b d9 28 89 b9 7d 42 11 3d
       0.0061408095 0.0038475692 -0.0002616111 0.0354638
000220 e6 d9 fb 3c a7 6a 16 bd 68 61 6e 3d 67 b5 0c 3d
       0.03074355 -0.036722805 0.058198363 0.034352686
000230 06 b3 05 bc ee bb 5f 3d 2a 6f ff 3a 2e 7d 1d 3d
       -0.008160358 0.054622583 0.0019488086 0.03844946
000240 43 94 57 bd 95 12 65 3d ca 52 68 3d a8 c1 3e bd
       -0.052631628 0.055925924 0.05671958 -0.046571404
000250 0d 94 66 bd 89 0b a6 bc 7c dd 22 bd 1c 1d 88 3c
       -0.056293536 -0.020269172 -0.039762005 0.016615443
000260 e8 12 e9 3c 9c 59 27 bc b1 73 28 3d 27 7e 5e 3b
       0.028451398 -0.010214236 0.041125957 0.0033949704
000270 d3 5e a7 bc b1 a8 5c bd f4 91 94 3c 95 74 72 bd
       -0.020430958 -0.053871814 0.018136002 -0.059193213
000280 97 fe 80 ba 59 6f 0f 3c e4 59 16 bd 0a 65 b2 3c
       -0.0009841499 0.008754575 -0.03670682 0.021776695
000290 06 37 2a 3c ef 5e 2b 3d 72 ad 24 3d 20 f1 52 bd
       0.010389095 0.041838583 0.040204473 -0.051499486
0002a0 fd c4 42 bd df 92 c4 bc 97 8a 33 bd e1 08 a2 3c
       -0.047551144 -0.023995815 -0.04383334 0.019779624
0002b0 ae 9f 2b bd b3 54 41 bd fd d8 88 3c a8 f5 18 3d
       -0.04190033 -0.047199916 0.01670503 0.03734365
0002c0 14 4c 9e bc f9 dd 81 bd a4 e7 fa 3b 52 1d 08 3d
       -0.019323386 -0.06341166 0.0076570082 0.033231087
0002d0 93 d3 43 3d 45 4b 86 3b 96 3b 33 3d ca 6a 66 bd
       0.047809195 0.0040983283 0.043757997 -0.056254186
0002e0 ad 1a 77 3d e5 c2 27 bd 97 94 2f bd 2c 06 33 3d
       0.060328174 -0.04095735 -0.042866316 0.043707058
0002f0 ca a4 8f bc 21 04 1f 3d 77 a9 31 bd 4a c3 3e 3d
       -0.017534632 0.038822297 -0.043374505 0.04657296
000300 d7 24 6b 3d f7 72 a1 3c 85 8d 50 3d a1 e0 37 bd
       0.05740818 0.01970814 0.050916214 -0.044891957
000310 37 2b 73 bc 33 a6 86 3c 3c b3 04 3d fe f8 08 bd
       -0.014841846 0.016436672 0.032397494 -0.033440582
000320 76 1d 23 3d b2 5e dc bc 3b 09 0e bd bd 69 17 3c
       0.039823018 -0.026900623 -0.03467677 0.009241519
000330 1a be 4a bd 47 30 6e bd 38 86 9e 3c 1a bc b3 3c
       -0.0494977 -0.05815151 0.01935111 0.02194028
000340 e8 33 b8 3c 1c 15 13 bc 96 26 44 bd d8 ef 50 bd
       0.022485688 -0.008977201 -0.04788836 -0.051009983
000350 12 55 6d 3d 29 9e 62 bd f8 da 8c 3c ab d8 4b 3d
       0.057942457 -0.055326615 0.017194256 0.049767178
000360 63 d9 30 3d 19 99 24 bd c0 4f a3 bc 9f 22 51 bd
       0.043176066 -0.040185068 -0.019935489 -0.051058408
000370 0a f9 1d 3d 89 9b 81 bd ee 6c 6e bd a2 01 36 bd
       0.03856758 -0.06328494 -0.058209352 -0.04443515
000380 02 32 4e 3d fc e1 1f 3d fc 1b 2b 3d 5d 05 40 3d
       0.05034066 0.039033875 0.041774735 0.046880115
000390 49 9e eb bc 57 56 0d bd 4b e1 29 bd 22 f4 9c 3c
       -0.028762 -0.03450617 -0.04147462 0.01915938
0003a0 8d 7c b6 3c ae ca 4c 3c 09 0f 45 bd 9b a9 7e 3b
       0.022276187 0.0124994945 -0.04811004 0.0038858417
0003b0 35 f2 07 bd 87 c1 4f bc dc 04 14 bc 6a 1b bd 3a
       -0.03318997 -0.012680418 -0.009034362 0.0014427726
0003c0 3a f1 60 bd 12 ae 5b 3d 68 84 d9 bc e3 ef 93 3c
       -0.05491755 0.053632803 -0.026552394 0.018058723
0003d0 76 79 16 3d c5 95 b8 3c 04 a2 31 3d 68 ea 0c 3d
       0.036736928 0.022532353 0.0433674 0.034403235
0003e0 14 7f 3a 3d d2 ed 41 3c d6 78 21 3d 0c bb e2 bc
       0.045531347 0.011836486 0.03942188 -0.027677082
0003f0 5a 7f 09 bd 9b 68 e8 3c 0f bb 6e 3c 0e c1 41 bb
       -0.033568718 0.028370192 0.014570965 -0.0029564532

model.model.model.2.bias f4 [256]
000000 54 3e 30 bd bd 7f 76 3b 09 9e 29 39 f1 3c 65 bd
       -0.04302819 0.003761276 0.00016175969 -0.05596632
000010 bf 7e 63 bd d9 53 3c bd c0 f8 66 bd cf 1c 68 bd
       -0.055540796 -0.0459784 -0.05638957 -0.0566681
000020 ce 35 1d 3d ef c1 0f bd 89 52 75 3d ec 0b 3f bd
       0.03838139 -0.03509706 0.059893165 -0.04664223
000030 05 b6 93 bc c9 56 53 bc 69 19 57 3d 14 ae f7 3c
       -0.01803113 -0.012899109 0.052514467 0.030234374
000040 65 f1 2f 3c 64 70 f6 bc af cb e6 3c 83 16 3a bd
       0.010738705 -0.030082889 0.028173296 -0.045431625
000050 00 af 28 3c de 58 15 3d 2c e3 98 3c e8 d3 12 3d
       0.0102956295 0.036461703 0.018663011 0.03584662
000060 a6 4b b6 bc ce a2 60 3d a5 24 9e 3a 88 64 02 3d
       -0.022252869 0.054842763 0.0012065364 0.031834155
000070 c5 ad c1 3b 0e 67 3b 3c c8 8d 4d bd e8 e8 1a 3d
       0.0059106075 0.011438144 -0.05018404 0.037819773
000080 39 73 70 bd e1 87 e4 bc b2 d5 84 3c 50 bd dc 3c
       -0.058703635 -0.027896823 0.01621518 0.02694574
000090 22 e6 e8 bc 14 9d bc bc 3b 62 c4 bc df de 70 bd
       -0.028430048 -0.02302412 -0.023972621 -0.058806296
0000a0 7d 98 51 bd 22 80 be 3c bd 01 d9 3b e0 e7 fe bb
       -0.051170815 0.023254458 0.0066225217 -0.0077791065
0000b0 30 c1 c4 3c ce a0 b4 3c ac 78 63 bd 73 78 d4 39
       0.0240179 0.022049334 -0.055535004 0.00040525533
0000c0 97 84 c0 3a 5d e0 16 bc 26 19 5f 3d f7 b1 0e bd
       0.0014687952 -0.009208766 0.054467343 -0.03483769
0000d0 1d 05 fc 3c 46 75 00 3d 6f d3 3c bd fa 39 51 bd
       0.030764157 0.03136184 -0.046100076 -0.05108068
0000e0 06 b0 13 3d c0 06 e6 bc f9 2b 49 3d 72 3c 21 3c
       0.03605654 -0.02807939 0.0491142 0.009841071
0000f0 ea 34 78 bb 60 bc 5c 3d ef 47 86 bc cb 06 8c 3b
       -0.0037873336 0.053890586 -0.016391722 0.0042732707
000100 0c a2 2b bd d2 bd 8c b9 91 4d 5c 3d a8 0e 68 3d
       -0.041902587 -0.00026844308 0.05378491 0.056654602
000110 8b 73 e5 bc 88 2c 02 bd ea b3 5c 3d f0 98 6d 3d
       -0.028009197 -0.03178075 0.053882517 0.05800718
000120 16 ec 24 bc db ea 42 bc 00 c2 2c bd 0d fc 58 bd
       -0.010066053 -0.011896814 -0.0421772 -0.05297475
000130 d8 da b3 3b 37 e6 4a bd 39 cd 10 3d 7c 80 55 3d
       0.0054887347 -0.049535956 0.035351966 0.052124485
000140 29 25 9d bc e9 51 18 bd 3b cf 5f bd 52 9d c9 bb
       -0.019182758 -0.03718749 -0.05464099 -0.0061527872
000150 de dd ef bc 5d e1 7a 3d ce d6 f3 3c df 6d 53 3d
       -0.0292806 0.06125008 0.029765513 0.051618453
000160 e2 68 73 3d bc f3 d6 3b 9e f3 0d bd 48 05 2e bc
       0.059426196 0.006559817 -0.03465616 -0.010621376
000170 3c 95 49 bd 02 7b 0d bd 07 ad 77 bd 4b b6 ba 3c
       -0.049214587 -0.034541138 -0.060467746 0.022792002
000180 26 fb 4c bd af d4 e9 37 5e f7 42 3d 61 9f 5d bc
       -0.0500442 2.7874803e-05 0.04759919 -0.013526768
000190 40 f5 55 3d ca 6e 13 3c cb ec 4a bc 57 04 ac 3c
       0.05223584 0.008998582 -0.012385557 0.020998163
0001a0 8e 14 83 3d 10 8e 15 3d 37 47 4e bd 30 81 46 bc
       0.06400405 0.036512434 -0.050360885 -0.012115762
0001b0 ca 96 8c bc 39 a1 de bc ac 7f b0 3b 76 f8 71 bd
       -0.017161746 -0.027176486 0.0053863134 -0.05907484
0001c0 74 72 52 3d ab 65 2f bd 1a c3 fc 3c 13 0e c8 3c
       0.051378682 -0.042821568 0.03085475 0.024420774
0001d0 bc c0 ac 3c c2 7b 39 bd 2c be 17 bd 9c b2 57 bd
       0.021087997 -0.04528404 -0.037046596 -0.05266057
0001e0 eb db 30 3d 87 9b 30 3d 22 a7 92 3c f1 6e dd 3c
       0.04317848 0.043117072 0.01790196 0.02703044
0001f0 e8 cc fe 3c 34 18 b7 3c c0 32 12 bd c0 02 a1 3c
       0.031103566 0.022350408 -0.03569293 0.019654632
000200 6e 90 1e bc f8 93 ba 3c 1d e8 38 3d b1 d9 aa 3c
       -0.009677989 0.022775635 0.045143235 0.020855756
000210 87 1a 95 bc 47 9a 4e 3d bc e5 43 3d 26 c1 16 bc
       -0.018201126 0.0504401 0.047826514 -0.009201324
000220 a1 6b 59 3d 30 13 1d bd cd 9e 0e 3d a7 0e 9f ba
       0.05308116 -0.038348377 0.034819413 -0.0012135104
000230 e7 6f c9 bb 87 46 68 bc 6d ff 66 3d f4 09 06 bc
       -0.006147373 -0.014176971 0.056395937 -0.008181084
000240 17 f7 48 bd 8b 49 d3 bc 54 c5 a1 bc e5 a6 2d 3d
       -0.04906377 -0.025791904 -0.019747414 0.04239549
000250 bc 56 56 3d c3 ba 8b 3c 16 61 cc bb 3a c0 52 3c
       0.05232881 0.017056828 -0.0062371595 0.012863213
000260 51 a5 cf bb cf 0b 7f bd a1 81 af bc 63 81 4a 3d
       -0.006336846 -0.06226712 -0.021424117 0.0494398
000270 c0 81 f0 3a 3a 44 49 bd 17 30 74 bd ba d2 4e 3c
       0.0018349215 -0.04913733 -0.059616175 0.012623483
000280 e9 22 f6 bc b5 5b 0d bd 3d 72 65 bc d6 07 4a 3d
       -0.030045943 -0.034511287 -0.014004287 0.04932388
000290 40 c1 26 3d d4 d7 b9 bc 58 7d 4d 3d 38 d6 67 3d
       0.04071164 -0.022685923 0.050168365 0.05660078
0002a0 87 a2 82 3c 83 78 e3 3c c5 d3 d9 bc 71 1b 3c 3d
       0.01594664 0.027767425 -0.026590237 0.045924608
0002b0 35 fb 43 bd 58 dc 3b bd 52 02 52 bd 8c 13 ff bc
       -0.04784699 -0.045864433 -0.051271744 -0.03113725
0002c0 3b 98 d7 b9 50 be a8 bc 2d e4 17 bd 1d c5 2e 3d
       -0.00041121416 -0.02059856 -0.03708284 0.04266845
0002d0 45 50 92 3c da 1c f9 3c 78 10 9e ba e0 98 15 3c
       0.017860541 0.030409265 -0.0012059351 0.0091306865
0002e0 82 a6 0c 3d 35 b8 a1 bc 2c 33 8b bb 40 97 89 bc
       0.03433848 -0.019741157 -0.0042480435 -0.016795754
0002f0 91 2a 05 bd 2c 0c c6 3b 1c 26 00 3d 40 15 e1 bc
       -0.032511298 0.0060439315 0.031286344 -0.027475953
000300 16 92 f8 3c 47 a2 0e 3d 3f 26 ba bc 3c 30 4d bd
       0.030343097 0.03482273 -0.022723315 -0.050094828
000310 f2 b6 2c 3d 1e c3 14 3d 79 68 ca bc 12 f0 45 b9
       0.042166658 0.03631889 -0.02470802 -0.00018876817
000320 d9 06 1a 3c 58 8d 15 bd 03 7a 80 bc 61 56 c9 bc
       0.009401047 -0.03651175 -0.01568318 -0.024577321
000330 06 65 69 3d e1 2b 50 3d 71 90 4a bc d3 ab e9 3c
       0.05698111 0.050823096 -0.012363539 0.028524315
000340 52 4e b3 bb ae 50 11 3d ef 32 1d 3d f4 3f 7d bb
       -0.005471983 0.035477333 0.038378652 -0.0038642855
000350 30 e0 24 3d a4 9f 01 bd d5 e4 54 3c c1 e3 25 bd
       0.040252864 -0.031646386 0.012994011 -0.040500406
000360 bb 08 43 bd 6c 6b a4 3c 1a c4 fb 3c 70 cf 2e 3d
       -0.047615748 0.020070754 0.030733157 0.042678297
000370 15 9d f5 bc c5 bd d8 3b 6d f4 e6 bc 41 9f 0a 3d
       -0.02998213 0.006614419 -0.028192723 0.033843283
000380 60 b9 27 3d fd 79 d0 3c 19 f7 e6 bc 1f 7a 68 3d
       0.04094827 0.025448794 -0.028193997 0.05675709
000390 62 e0 87 3c 75 cd 67 3c 53 5f c9 3b 41 03 c5 3a
       0.016586486 0.014148106 0.0061453967 0.0015030877
0003a0 84 91 75 3d 6d a1 0c 3d a5 97 26 3d 49 7d 36 bc
       0.059953228 0.034333635 0.040671963 -0.011138269
0003b0 e0 59 83 3d 87 06 62 3d 7e cc 2d bc 76 36 9a bc
       0.06413627 0.055182006 -0.010607837 -0.018824797
0003c0 ed cb 41 bd 1a cb 58 3d 78 30 79 bc c7 b4 06 3c
       -0.04731362 0.052928068 -0.01520931 0.008221812
0003d0 fd b1 b0 bc 77 05 39 3d f0 1f 2d bc 23 39 15 bd
       -0.021569246 0.045171227 -0.0105666965 -0.036431443
0003e0 8f 3a 87 bc da 95 35 3c 42 e2 f6 bc 8f b4 b8 3c
       -0.016507415 0.011083091 -0.030137185 0.022547035
0003f0 5e d5 6a bd 73 46 b2 3c 07 79 b1 bc 1a e7 1d 3c
       -0.05733239 0.021762108 -0.021664156 0.009637618

model.model.model.4.weight f4 [35, 256]
000000 67 7b 1e bc 3f 78 25 3d 4d 24 7f bd e9 74 9b bc
       -0.009672976 0.04039788 -0.06229048 -0.018976646
000010 7e b1 f5 bc 5d 22 5f bd fa ef 43 3d 52 45 25 bd
       -0.029991861 -0.05447613 0.04783628 -0.040349312
000020 17 fa ba bb 40 33 43 bb d8 48 4c 3d d5 8e 87 bd
       -0.0057060826 -0.0029785186 0.049874157 -0.0661904
000030 85 f0 42 3d 65 3d 25 bd ec 40 64 3c 5b 58 76 bd
       0.04759266 -0.040341754 0.013931494 -0.060142856
000040 8d e8 0b 3d b8 89 58 3c bb 9c d5 bc 1a 90 54 bd
       0.034157325 0.013216428 -0.026075711 -0.05189524
000050 6f 0d 88 3d 1f d3 77 bc a3 7b be 3c be bb 0f 3d
       0.06643187 -0.015126019 0.023252314 0.035091154
000060 cf f3 e2 3c 2e a7 1a 3d 1c 9e 4d 3d c8 05 34 3d
       0.027704148 0.03775709 0.050199613 0.043950826
000070 a2 46 46 3d e4 78 f7 3c 5a 13 47 bd 6a f7 a9 3c
       0.048407204 0.030209012 -0.04860244 0.020747859
000080 00 57 52 3d b7 78 fe 3c 1d da 1b bd c7 9c 09 bd
       0.0513525 0.03106342 -0.038049806 -0.03359678
000090 20 9b 6c 3d 52 61 12 bd 4f fa 5f bd b3 30 b6 3c
       0.057765126 -0.035737343 -0.054682072 0.022240018
0000a0 6c c0 2d bd 8a 8d 25 bd bb ce 8e bb 80 65 1b 3b
       -0.042419836 -0.040418185 -0.0043581403 0.0023711622
0000b0 e2 9a a3 3c e8 ce 19 3d e4 48 0a 3d 80 4f 46 3d
       0.019971315 0.037550837 0.03376092 0.04841566
0000c0 cc e7 5c 3b d6 91 59 bd 9f eb 99 3c 1a cd 87 3c
       0.0033707498 -0.053117596 0.01878911 0.016577292
0000d0 ee 72 6c bc d7 4f e3 3b 87 9e 09 3c 8e 0a b8 bc
       -0.014431698 0.006937008 0.008399612 -0.02246597
0000e0 37 0e e4 3c 58 e4 24 bd 6b 0c a5 3c 7d 4b 3e bd
       0.02783881 -0.040256828 0.020147523 -0.04645871
0000f0 ff 15 19 3d 56 31 31 bd 2f ad 1b bd f8 1c 18 3b
       0.037374493 -0.04325994 -0.038006958 0.0023210626
000100 40 b9 13 bd 34 e3 36 3d f0 1b 26 bd 35 bd 03 bd
       -0.03606534 0.04465027 -0.040553987 -0.032162864
000110 6e 72 e4 bb 30 7a 5e bd e3 3f 1c bc da d8 13 3d
       -0.006971649 -0.054315746 -0.009536716 0.036095478
000120 a3 ab 1e 3d 57 84 a4 bc 62 9b 23 3d de 6d c7 bc
       0.038737904 -0.020082636 0.039943106 -0.024344381
000130 ee a3 87 3b b8 07 2f 3d a6 a2 4e bd ef 1d 81 bd
       0.004139415 0.04273197 -0.050448082 -0.063045375
000140 2c 8a 13 3d 56 a4 2a 3d fb b4 ae bc ee f0 9e 3c
       0.036020443 0.04166063 -0.021326533 0.019401994
000150 31 6f 32 3d e8 31 7b bd 5b 0e 1a 3d 29 9e b2 3c
       0.04356307 -0.06132689 0.037611347 0.021803932
000160 8b 5f fd 3c 0b 80 37 ba 88 37 02 3d 3a 7b 4f 3c
       0.030929348 -0.0006999976 0.03179124 0.012663657
000170 6a 3a fe bc 78 52 26 bd 36 83 ef 3b a0 ac aa bc
       -0.031033713 -0.040605992 0.0073093427 -0.020834267
000180 e0 3f f5 3c d0 0e 92 3c 92 35 31 bd 8b 97 15 bd
       0.029937685 0.017829329 -0.04326398 -0.036521476
000190 68 26 38 bd 4f 74 60 3d 6d e2 16 bc d1 a2 7c bc
       -0.044958502 0.05479842 -0.009209258 -0.015419678
0001a0 ae 6a 4b bd 64 7d 25 3d 49 21 ab bc 0d e5 ec bc
       -0.049662285 0.040402785 -0.020889895 -0.028917814
0001b0 0b 0d 2d bd dd 85 2b 3d 3f ef 92 bb 32 2b a0 3c
       -0.042248767 0.04187571 -0.0044840868 0.019551847
0001c0 b6 f7 bf 3b 58 92 7a 3c ec a9 6f bd 6e 90 69 3d
       0.005858387 0.01529368 -0.05851166 0.057022505
0001d0 70 0b 05 bd e1 ad b4 3c e9 76 00 bd 3e 9c 9d 3c
       -0.03248161 0.022055568 -0.0313634 0.019239541
0001e0 4c 49 93 3c 11 3c e9 3b e8 4c 66 bc 0a 3c 87 bb
       0.017979287 0.007117756 -0.014056422 -0.0041270303
0001f0 df 65 00 bd 4e d9 40 3d 09 ff 72 bd 0d 7a d0 3c
       -0.03134715 0.047082238 -0.05932525 0.025448823
000200 5e a6 e8 bc 5f 0c 6d 3d 20 00 7b bd 84 0e 95 3c
       -0.028399643 0.057873126 -0.061279416 0.018195398
000210 e2 50 2d bd 6b 0e 05 bd 05 3c 14 bd ea 1a 44 bd
       -0.042313464 -0.032484453 -0.03619005 -0.04787723
000220 a5 ff 5c 3c fb 32 ec 3b 4d 23 0b 3d e9 15 f3 bc
       0.013488685 0.007208226 0.033969212 -0.029673534
000230 58 8a 3b bc 9f 65 63 bd 92 b9 ea 3c 84 04 87 3b
       -0.011446558 -0.055516835 0.02865294 0.0041204114
000240 b9 f4 fe bc d6 27 83 3c d8 59 81 bd d5 b4 52 3d
       -0.031122552 0.016010206 -0.063159645 0.051441986
000250 90 13 0d bd dc fd 2b 3d 5e 85 1f bd 8c 0d 57 bd
       -0.034442484 0.041990146 -0.03894555 -0.052503154
000260 79 2b 20 3b f0 73 83 3b 71 3d 07 3d c0 b4 bd 3c
       0.0024439974 0.0040116236 0.03301758 0.023157477
000270 22 a2 6b 3d 77 81 b0 3c 47 93 37 bc db 07 75 3c
       0.05752767 0.021546109 -0.011204547 0.014955486
000280 20 3e 73 bd 2e 37 7c 3c d9 5d dc b9 84 60 4f bd
       -0.05938542 0.015394015 -0.00042031592 -0.050629154
000290 52 30 02 3d dc c4 94 bc 7c 45 df bb 9a 60 d2 bb
       0.031784363 -0.018160276 -0.006813703 -0.006420207
0002a0 da 6d 36 bc 35 01 83 3b c6 e7 6a 3d c0 d6 74 3b
       -0.011134589 0.0039979466 0.057349943 0.0037359446
0002b0 d9 67 2c 3b bc e5 1c bd 24 f5 a1 bb a1 23 78 3c
       0.0026307015 -0.03830503 -0.004942553 0.015145213
0002c0 c5 30 42 3d cc 8b 68 3d 73 03 60 3b 97 ca 12 3b
       0.04740979 0.056773946 0.0034181743 0.0022398585
0002d0 22 e9 de bc f8 47 2f bd 04 ed f0 3c 5d 64 3e 3c
       -0.027210776 -0.042793244 0.029409893 0.011620608
0002e0 44 7c ef bc 64 c0 05 3d 9f c6 33 3c 9e 4e c5 3c
       -0.02923406 0.03265418 0.010972648 0.02408534
0002f0 79 52 7d bb ec 8a 62 3c 42 09 13 bd d5 25 3c bd
       -0.0038653894 0.013827067 -0.0358975 -0.045934517
000300 a8 cb a1 bc 18 74 08 3d 98 5a ca bc 8c 31 2b 3d
       -0.019750431 0.03331384 -0.024701402 0.0417953
000310 17 72 9c 3c 8a 27 33 bd a9 ee 09 bd 6b 46 9b 3c
       0.019097371 -0.04373888 -0.03367487 0.018954476
000320 5c 91 11 3c d2 c1 db 3b 56 ef 86 bc 2a 8c fb 3c
       0.008884754 0.006706455 -0.016471546 0.030706484
000330 55 15 c4 bc c4 98 a4 3c 6e a7 11 3d 66 a3 01 3d
       -0.023935953 0.020092376 0.035560064 0.03164997
000340 a9 b9 e6 bc 48 18 c2 3c 1c ad fa 3b 8b 9a 60 bd
       -0.028164702 0.023693219 0.007650031 -0.054834884
000350 e6 d5 59 3d 70 9b 83 bd 0f f6 08 3d 97 29 db bc
       0.053182505 -0.06426132 0.033437785 -0.02675323
000360 a6 23 3f 3d de d9 43 3d 38 6d 64 3d 2c f8 01 bd
       0.046664856 0.047815196 0.05576822 -0.031730816
000370 3a 4d f0 bc ad 38 13 3c 1e 10 89 bc bb d2 84 bd
       -0.0293337 0.0089856805 -0.016731318 -0.06485506
000380 38 a0 a2 bc ab f1 52 bd 1e 04 d4 bc 55 9d 70 3d
       -0.019851789 -0.051500004 -0.02588087 0.058743794
000390 8e 95 72 3d 84 8c 58 3d 51 f5 1b 3c d6 3a 51 bd
       0.059224658 0.05286838 0.009518937 -0.0510815
0003a0 9d 1b c7 bc 10 97 1d 3d d4 2a 43 3c 6a 49 e5 3c
       -0.02430516 0.038474143 0.0119120665 0.027989108
0003b0 59 9d 71 3b 5c 66 a5 3c 57 cf 70 bd 15 fa 41 bc
       0.0036867468 0.02019041 -0.058791485 -0.011839409
0003c0 43 d3 61 3c 86 02 01 3c 00 b7 9f 3b dc 74 9b bc
       0.013783279 0.007874137 0.00487411 -0.018976621
0003d0 2b 45 04 3d 80 76 93 3c 99 91 dd 3c 95 d5 18 3d
       0.032292526 0.018000841 0.027046965 0.037313063
0003e0 86 71 01 bc 54 7e 39 3d 5b 73 45 3a 6c c4 81 bd
       -0.007900601 0.04528649 0.0007532143 -0.063362926
0003f0 c2 c5 13 3d b0 7a 4e 3d db 34 0c 3b 85 11 5f 3d
       0.03607727 0.050409973 0.002139381 0.054460067

model.model.model.4.bias f4 [35]
000000 4c 43 df 3b db 4d 0b 3d 08 6c 31 3d e1 14 bb bc
       0.0068134423 0.034009796 0.043315917 -0.022837104
000010 e4 a6 43 bd f6 fc 09 3d 50 30 4a bd 6c ba eb bc
       -0.04776658 0.033688508 -0.04936248 -0.028775416
000020 52 d6 51 3c 8c 53 cd bb dd fc 5b bd 18 18 53 bd
       0.012807446 -0.006266063 -0.053707946 -0.05153665
000030 f4 b0 42 bd f7 c1 0b 3d c2 37 7b 3c d9 7e 11 3d
       -0.047532037 0.034120526 0.015333118 0.035521362
000040 11 6c 53 3d 10 a3 e7 bb f0 07 25 3c 77 d9 7c bc
       0.051616732 -0.007068999 0.010072693 -0.015432707
000050 4e b0 68 bd 4b 1d 07 bc fc 35 57 3d 8c 5c 78 3c
       -0.056808762 -0.00824673 0.052541718 0.015158784
000060 ee 03 cf 3c cd 8f 0f bd 92 aa 97 bc d6 77 23 3d
       0.025270429 -0.03504925 -0.018513951 0.039909206
000070 fa d5 e9 bb 41 76 79 bc d6 2c fa ba 6f 8d 18 3c
       -0.0071361037 -0.015225948 -0.0019086848 0.009311064
000080 7c e6 35 bd 16 85 dd 3c 69 ff ec 3c
       -0.04440926 0.027041 0.028930383

model_old.model.model.0.weight f4 [256, 13]
000000 f4 ce 5e 3e d3 97 70 3e 43 92 86 bd f6 52 82 3e
       0.21758634 0.23495416 -0.06570866 0.2545392
000010 ce dc 7d bd 5c 61 68 3d 2b b4 05 be 0d 57 2b 3e
       -0.061978154 0.056733474 -0.1305701 0.16732426
000020 20 aa 7c 3e 14 96 4d be 76 4a 7d 3e 3a c0 70 3d
       0.24674273 -0.20076782 0.24735436 0.05877707
000030 97 d3 51 3e 2f 1f 09 3d 28 37 08 3e 33 f5 1d bd
       0.20490871 0.033477005 0.1330229 -0.03856392
000040 4a a5 58 3e b4 11 22 3d 9b fe 04 be 52 a2 8f 3d
       0.21156803 0.039567664 -0.1298775 0.07013382
000050 4d 43 02 be 6b a4 e4 bc 99 2f e7 bd 8f 67 3a 3e
       -0.12720986 -0.027910432 -0.112883754 0.18203567
000060 b1 22 64 be 10 ee 02 be 89 36 a5 bd 8e 6e 28 be
       -0.22278859 -0.12786126 -0.080670424 -0.16448423
000070 d9 e7 c9 3c 2b 8e 8d be 28 0e 83 3e 29 6f 6e be
       0.024646686 -0.27647528 0.25596738 -0.23284592
000080 07 78 61 3e f0 15 62 3d 50 1b a9 bd ec 74 36 3e
       0.22018443 0.055196702 -0.082571626 0.1781804
000090 cb a8 43 3d 37 3f 6a 3e 49 61 f8 3c d6 30 b4 bd
       0.047768395 0.22875677 0.030319827 -0.08798377
0000a0 a0 e7 9a 3d c3 ff 9e bd e1 29 e7 3d e8 e3 78 3e
       0.0756371 -0.077636264 0.11287285 0.2430569
0000b0 9a 9c 23 3e 8f 03 f6 bd 96 2f 27 3e 06 d6 59 3d
       0.15977708 -0.120123975 0.16326746 0.053182624
0000c0 62 9f 11 3e 7f c8 28 be 85 2c 8a be 32 75 db bd
       0.14220956 -0.16482733 -0.2698709 -0.107157126
0000d0 d8 17 56 be d5 f5 67 3e af d1 a0 3d 78 b6 e6 3d
       -0.20907533 0.22652371 0.07852494 0.11265272
0000e0 f1 a3 ad 3d 6f 84 19 bc 07 44 57 3e 27 3e 52 be
       0.08478535 -0.009369954 0.21022044 -0.20531522
0000f0 2b 64 25 3c a9 1e 4b be 68 47 9e 3d 51 c5 cf bd
       0.010094683 -0.19835915 0.077284634 -0.10145057
000100 66 0c ae 3d b4 61 78 bd c2 ba 6a 3e f5 af 27 be
       0.084984586 -0.060640052 0.22922805 -0.16375716
000110 64 d3 28 be 44 35 29 be ee 94 7e 3e 87 8b ba 3d
       -0.16486889 -0.16524225 0.248615 0.09108644
000120 1f 33 89 3e 18 b8 6b be 0c 17 8d be 0d c4 5e be
       0.26796815 -0.23019445 -0.27556646 -0.21754475
000130 d6 7e 3f be 6d 11 e6 3d e3 a6 be 3d e9 61 66 3e
       -0.18700728 0.112337925 0.09309175 0.22498287
000140 45 f7 0f be 0b 70 45 be 0c 56 13 3e 38 75 e6 bd
       -0.1405917 -0.19281022 0.14388293 -0.112528265
000150 80 ad 2b 3e 8f 01 89 bd b9 36 20 3e f7 a6 5f be
       0.16765404 -0.066897504 0.15645875 -0.21841036
000160 b6 fa 11 be 59 ec a7 3d 1a 2a 70 3d 4f 73 80 bd
       -0.14255795 0.081993766 0.0586339 -0.06271993
000170 cf 74 30 3e f8 92 41 3e 29 d9 4c be 77 36 18 be
       0.17232059 0.1890372 -0.20004715 -0.14864527
000180 22 5f 82 3e a9 6d ca bd 92 1e d3 bd 98 e7 8a be
       0.25463206 -0.09884197 -0.10308565 -0.27129817
000190 74 6a 2c be 88 5c 74 3d f7 e1 2b bd 06 28 4e be
       -0.16837484 0.059658557 -0.041963544 -0.20132455
0001a0 f8 0f 17 3b 1d 96 3f be 77 27 70 be c5 50 1d be
       0.002305029 -0.18709607 -0.23452555 -0.15362842
0001b0 6b d7 79 be 88 46 38 be 40 5f 8b 3e fb 59 5b 3d
       -0.24398582 -0.17995656 0.27221107 0.05355261
0001c0 a1 ef b2 3d ce 3f 85 be 44 72 3b be 66 1a c0 bd
       0.08737112 -0.26025242 -0.18305308 -0.09380035
0001d0 43 a4 31 3d fd 03 74 be 2e f9 e6 bd c9 0e 2e be
       0.043369543 -0.23829646 -0.11277996 -0.16997828
0001e0 ca 09 d6 3b 7b 40 ca bd 71 b4 8b bc 82 01 3b be
       0.0065319287 -0.0987558 -0.017053815 -0.18262294
0001f0 96 06 41 be 2d e4 27 be 78 63 b8 bd 4c 6c 59 be
       -0.18850169 -0.16395636 -0.09003347 -0.21232718
000200 8e b4 6f 3e d7 75 61 bd ca f7 6e 3e 56 56 a9 3d
       0.2340872 -0.05504402 0.23336712 0.082684204
000210 a1 4d 72 be fb 84 42 3e 37 9f 9e bd b3 52 e0 bd
       -0.23662426 0.1899604 -0.077452116 -0.109532736
000220 13 ef 6d be fe f5 8c be 98 82 a7 3d 0a ee 74 bd
       -0.23235731 -0.27531427 0.08179206 -0.059797324
000230 ab e9 db 3d da 51 68 be ce da 52 3e 47 fb 55 be
       0.10737928 -0.22687474 0.2059128 -0.20896636
000240 87 da 4a bd 04 5e 69 3d 2e 56 10 3e 89 f3 67 3e
       -0.04952481 0.056974426 0.14095375 0.22651495
000250 85 fc 80 3e 9c 9b 5b be 64 bc 97 3d 3e 4e ec bd
       0.25192657 -0.21446079 0.074089795 -0.11538361
000260 41 f2 bc bc 37 46 4d be 61 89 83 3e 5c 72 50 be
       -0.023064734 -0.20046316 0.2569075 -0.20356125
000270 35 3c 20 3e 1b 22 d6 3d 8e b5 ba 3d 63 a4 14 be
       0.15647967 0.10455724 0.0911666 -0.14515834
000280 18 98 81 3e bd 4d 7a 3d f4 42 0a 3d dc 7c 7c be
       0.2531135 0.061109293 0.033755258 -0.24657005
000290 ca 9f e9 3d 8e 80 50 bd 22 32 07 be da a8 73 3e
       0.114074305 -0.05090385 -0.13202718 0.2379488
0002a0 8f 46 7d 3d d9 df 1c be d1 3d 12 be 8b cd 10 bc
       0.061834868 -0.15319766 -0.14281394 -0.008838068
0002b0 41 01 22 3e ed 84 88 bd 1a 17 1f be 06 85 ca bd
       0.15820791 -0.066659786 -0.15536156 -0.098886535
0002c0 e3 57 58 be b0 4d c2 3d 6e b0 56 3e b7 88 87 be
       -0.21127276 0.09487474 0.2096574 -0.26471493
0002d0 3b a3 75 3d 26 b7 12 3e 8c 0e 73 3d 92 4b bb bd
       0.05997012 0.14327678 0.059340045 -0.09145273
0002e0 21 9a 11 3e 8f a7 12 3e d2 ff c8 3d 0e 42 5c bd
       0.14218952 0.14321731 0.09814419 -0.053773932
0002f0 90 d7 97 bd ec 2a 06 3d ef 28 45 bd ff b0 b8 bd
       -0.07414162 0.032755777 -0.04813474 -0.09018134
000300 19 b0 33 3e 21 b9 7a 3e 59 ed e0 bc d4 0e 72 bd
       0.17547645 0.24484684 -0.027456926 -0.059096172
000310 ba 91 26 3c d5 65 a5 bc b9 fe 8e 3d c3 a7 a5 3d
       0.01016658 -0.020190159 0.06982178 0.08088639
000320 20 94 81 be 59 dd cb bd 4e 94 75 3e 3c e6 e7 3d
       -0.25308323 -0.09954328 0.23982355 0.113232106
000330 e3 e9 1a bc 7d 25 25 be 79 1a 28 be 53 67 7e be
       -0.009455177 -0.16127582 -0.16416349 -0.24844103
000340 bf 9b b9 bd 99 48 be 3d 85 99 33 3e 75 1a 02 3e
       -0.09062909 0.09291191 0.17539032 0.12705405
000350 11 99 7a be 15 af 29 be 03 fb 1e bd 30 bd 8a 3e
       -0.24472453 -0.16570695 -0.038813602 0.27097464
000360 31 52 37 3d c0 fd 88 bd f6 11 ef 3d 35 a2 cf bd
       0.04475612 -0.06689024 0.11673348 -0.101383604
000370 27 d3 37 be a5 fd 57 3e ff 85 f5 bd 1c 2e 65 bd
       -0.17951642 0.21092851 -0.11988448 -0.055952176
000380 fc aa 8d be 14 23 3a 3e d7 a1 51 3e 4f 8f cd 3d
       -0.27669513 0.18177444 0.20471893 0.100370996
000390 27 de 49 be 8a bf 8e be 38 da 6c be 38 42 4f 3e
       -0.1971365 -0.27880508 -0.23130119 0.20240104
0003a0 3f bc 0a 3e 24 fe 6e 3e 01 bd 1c 3e e2 36 9e 3d
       0.13548373 0.23339134 0.15306474 0.07725312
0003b0 32 17 70 3b 5f c6 53 be ed d4 6e be f9 22 87 be
       0.003663492 -0.20681141 -0.23323412 -0.2639387
0003c0 e0 88 e4 3d d6 c3 0c be 20 ea 5b bd 3e 37 23 be
       0.11158919 -0.1374658 -0.053690076 -0.15939042
0003d0 e1 22 56 bd ea cf 49 be 05 93 39 be 95 c6 c5 3d
       -0.052279357 -0.19708219 -0.1812249 0.09657017
0003e0 01 5f a4 bd ca 22 30 3e e6 96 b2 bd 2a 66 50 be
       -0.08025933 0.17200771 -0.08720188 -0.20351472
0003f0 fe f9 4b bd c5 d0 0d be f4 12 b8 bd c6 f0 88 be
       -0.049798958 -0.1384917 -0.0898799 -0.26746196
